DenseNet-7-12 created.
Model created
_________________________________________________________________
Layer (type)                 Output Shape              Param #   
=================================================================
input_1 (InputLayer)         (None, 2048, 2048, 1)     0         
_________________________________________________________________
initial_conv2D (Conv2D)      (None, 2048, 2048, 16)    144       
_________________________________________________________________
batch_normalization_1 (Batch (None, 2048, 2048, 16)    64        
_________________________________________________________________
activation_1 (Activation)    (None, 2048, 2048, 16)    0         
_________________________________________________________________
conv2d_1 (Conv2D)            (None, 2048, 2048, 12)    1728      
_________________________________________________________________
merge_1 (Merge)              (None, 2048, 2048, 28)    0         
_________________________________________________________________
batch_normalization_2 (Batch (None, 2048, 2048, 28)    112       
_________________________________________________________________
activation_2 (Activation)    (None, 2048, 2048, 28)    0         
_________________________________________________________________
global_average_pooling2d_1 ( (None, 28)                0         
_________________________________________________________________
dense_1 (Dense)              (None, 3)                 87        
=================================================================
Total params: 2,135.0
Trainable params: 2,047.0
Non-trainable params: 88.0
_________________________________________________________________
Finished compiling
Building model...
Found 285 images belonging to 3 classes.
Found 100 images belonging to 3 classes.
Epoch 1/11
Traceback (most recent call last):
  File "flowdir.py", line 88, in <module>
…
